model_zoo/DIPNet.pth (torch, 991924 bytes, 59 tensors)

conv_1.weight f4 [44, 3, 3, 3]
00000000: 583c 773d 6b44 083e 6060 00be 4464 a3bd
00000010: 9982 90bd 31ad 3f3d a0be 243d a71c 4e3e
00000020: e618 6fbd e7ca 6b3d 2f22 b0bd 313f 35bd
00000030: 75c8 37be cc20 3dbe f9f0 d5bd 6a45 f53c
00000040: 9fb3 a73d 7211 9d3d d346 0fbe f225 9fbd
00000050: 63a1 663d 98b0 4b3e 27a2 0cbd 5478 f93d
00000060: ea03 2ebd 3ac7 623c 5bd2 e33d 7529 0dbd
00000070: e1aa a6bb b566 8b3b f115 43bc e002 ff3c
00000080: 16b8 ac3b 7af9 42bb 1e0d eabc 13ea 70bc
00000090: e760 0ebd fefc f73c 2568 cd3c a068 293c
000000a0: 1c99 633b 9635 82bc d3ef 383c c2f2 b8bc
000000b0: b96a 1abc 434a cfbc 41c3 f03c 8a0e ba3c
000000c0: 48bb 82bc 291f 2b3c a998 da3b d059 223d
000000d0: 35fb 37bc c339 063c 3a20 a63d d4a6 87bd
000000e0: f31d a33d 2bbc 26be 5fbd 50be b90a a7bb
000000f0: 81ba fb3c 14a4 1c3e 7f5a 323c b9ee 24bd
00000100: 950d 783d 6ac5 bebd 9abf 8dbc ea20 ee3d
00000110: 9d4b 3d3e 61ac bd3d c542 42be 28eb d03b
00000120: 8a03 dcbc 000f 103e 51bf f33d 2216 2c3e
00000130: fa5d 1e3d 81b2 f1bd 2690 dbbd d690 28be
00000140: 07de d8bd f63d 603e 8154 3d3e e4c3 08be
00000150: 36d1 5b3d 38b6 f1bc 61a2 853b 0ec5 99bd
00000160: 5be8 ad3d 1911 71bd 52bb 023e ce30 043e
00000170: 3edc 4a3e db5e a63d 5af0 58be ab46 c8bd
00000180: 44e9 e23d 0ce3 263d c2a2 d6bd b8c2 acbd
00000190: 7feb 253e 589a 1e3e 3dbd f5bd 9d1f 0ebe
000001a0: 922e 4fbe 27a5 8dbc e7aa 42be 909a 06be
000001b0: 2fe5 5fbd aad2 dd3d b57c 0dbe d878 0a3e
000001c0: cf3c 38be a9f5 3e3e 243c d13d 5b7d 4fbd
000001d0: 2e65 99bd 625e 853d f5ee 303c c14e ae3d
000001e0: 8dec 313d 4315 f83d 85c6 22be b68f 0f3d
000001f0: 31b7 1cbe 38ae 12bd 85d2 dbbc 4491 15bd
00000200: 9d59 04bd a048 35be 827f b8bb f218 223d
00000210: bf0e d4bd eba8 103e 2306 0e3e fde7 2d3c
00000220: 1153 5d3d 3ba2 3d3b f9c2 bc3d 131d 613e
00000230: afd2 6d3e e9d2 223e e81d 793e a3ba 893c
00000240: f66a 3abe 150e 0abe 1d67 ca3d 90ff d8bc
00000250: 3230 11be fd14 3cbe d37c 2ebe 7795 3abe
00000260: fadc 15bd 454a e83d 452e e03d 1846 2bbe
00000270: a1cb 063e b8a0 26be 061d 26bd 861a 0dbd
00000280: 877a 92bc 2a6b c3bb 4865 dcbd 2f70 13be
00000290: 3f56 253c 4675 9e3d 42b1 1fbe 8209 fb3d
000002a0: 63e1 b7bd d58c 033d 5d60 5d3e c73c 84bc
000002b0: 159b 3d3e ed47 2bbd d4b4 03be b43d 213e
000002c0: c58a ccbd e691 ebbc 70eb 0d3e ba5f 36be
000002d0: 6b2e 4b3d 3a1c 21bd 24b3 da3d 204a 9f3d
000002e0: f698 7b3d 697b 793c f728 9c3c fece 8dbd
000002f0: efe8 1ebe 044f ac3c 6d11 b83c 2ec5 e83c
00000300: 4b43 40bc 7feb 34bc 64e7 27bc c517 d7bc
00000310: e101 0dbc ad17 3a3c dbff a4bb d440 803c
00000320: 5ea6 843c c705 6b3b 3af2 75bc 1fb2 49bc
00000330: 31d5 d9bc 8357 863c 5324 99b9 3984 c53c
00000340: 5f14 543c 45fb 4cbb 014f 513b c878 60bc
00000350: b7d0 14bc 6eef f4bc b86e 31bb fdba 2c3c
00000360: 4527 8ebd ddf8 8dbd 1379 613e 31b8 14bd
00000370: 9278 33be 6065 473e 16d8 3f3d b369 ab3d
00000380: 5a44 1cbe 9e06 963d 44ea 11be db48 dd3a
00000390: cb02 a5bd e3a4 28be c788 55bd f0fa f13d
000003a0: a5c4 52bd b35c a83d 8bf9 cc3d 58a5 d1bd
000003b0: f2b5 5b3d c99d adbd bb52 22be 9d9c 5d3d
000003c0: 87b9 b93d c7c4 443e d002 7bbd 69be b93c
000003d0: 372b fd3d 9472 e5bd 32b8 1a3e 95e1 4dbe
000003e0: e551 2d3c 34ab edbb 218e c1bd 7185 763d
000003f0: 1820 f43d b13b c9bd cbac cebd 4111 f0bd
0.060360283 0.1330735 -0.12536764 -0.079781085 -0.070561595 0.046796028 0.040220857 0.20128118
-0.058373354 0.05756655 -0.0860027 -0.044249717 -0.17947562 -0.18469542 -0.104463525 0.029940326
0.08188557 0.07669343 -0.13991861 -0.07770909 0.056306254 0.19891584 -0.034334328 0.12181154
-0.0424842 0.013841445 0.111241065 -0.034463365 -0.0050862883 0.004254187 -0.011907087 0.0311293
0.005270968 -0.002975075 -0.028570708 -0.014704245 -0.034760382 0.030272003 0.025074074 0.010339886
0.0034728711 -0.015894692 0.011287647 -0.022576693 -0.009424859 -0.025303965 0.02938998 0.02271201
-0.015958443 0.010444441 0.0066710305 0.039636433 -0.011229326 0.008192482 0.081116155 -0.06623617
0.07964697 -0.16282718 -0.2038474 -0.005097714 0.03072858 0.15296966 0.010885834 -0.040266726
0.060559828 -0.093149975 -0.017303277 0.116273716 0.18485875 0.09261394 -0.18970783 0.006375689
-0.026857156 0.14068222 0.11901725 0.16805318 0.03866384 -0.11801625 -0.107208535 -0.164615
-0.10589223 0.21898636 0.18489267 -0.13355976 0.053666316 -0.029505834 0.004078195 -0.07508288
0.08491584 -0.058854196 0.1276677 0.12909243 0.19810578 0.08123561 -0.21185437 -0.09779104
0.11079648 0.040743873 -0.10480262 -0.08435577 0.16203116 0.15488565 -0.11998985 -0.13879247
-0.20232609 -0.017290665 -0.19010507 -0.13144898 -0.054661926 0.108311966 -0.13817103 0.1352266
-0.17991947 0.186484 0.10216549 -0.050656658 -0.074900016 0.06512143 0.010799159 0.08511115
0.043438483 0.1211343 -0.15896042 0.035049163 -0.15304257 -0.03581068 -0.026833782 -0.03651549
-0.032312024 -0.17703485 -0.0056304345 0.03957457 -0.10354375 0.14126937 0.13869528 0.010614392
0.054034296 0.0028935808 0.092168756 0.21983747 0.232249 0.15900768 0.24327815 0.016812628
-0.18204865 -0.13481934 0.098829485 -0.02648905 -0.14178541 -0.18367381 -0.17039804 -0.18221079
-0.036587693 0.11342291 0.10946325 -0.16725957 0.13163616 -0.16272247 -0.040555023 -0.034449123
-0.017880691 -0.0059637027 -0.10761505 -0.14398263 0.010091363 0.07737212 -0.15594962 0.12257673
-0.08978536 0.03211673 0.21618791 -0.016142262 0.1851619 -0.04181664 -0.12861949 0.15746194
-0.09987406 -0.028756093 0.13859344 -0.17809954 0.049604814 -0.03933356 0.106786996 0.0777781
0.06142517 0.015227177 0.019062502 -0.06924246 -0.15518545 0.021033771 0.022469247 0.028414335
-0.011734794 -0.011042475 -0.010248039 -0.026256451 -0.008606405 0.011358184 -0.005035383 0.015655912
0.016192611 0.0035861598 -0.015011365 -0.012310534 -0.026590915 0.01639915 -0.00029209498 0.0241109
0.01294431 -0.0031277698 0.003193796 -0.0137006715 -0.009082965 -0.029899325 -0.002707405 0.010542628
-0.06941084 -0.069322325 0.22018842 -0.03630847 -0.17526463 0.19472265 0.046836935 0.0836977
-0.15260449 0.07325481 -0.14249521 0.0016882675 -0.08057173 -0.1646915 -0.052132394 0.11815441
-0.051457066 0.08220806 0.10008534 -0.10236615 0.053640313 -0.08477361 -0.15851872 0.054104436
0.0906859 0.1921569 -0.06128198 0.022673802 0.12361758 -0.11203495 0.15109327 -0.20105584
0.010578607 -0.007253075 -0.09450937 0.060185853 0.11920184 -0.09825838 -0.100915514 -0.11722041

block_1.c1_r.weight f4 [38, 44, 3, 3]
00000000: c2dd 553c d84c 9a3c f86e 35bd 606e 14bc
00000010: e381 453f ea1f da3c 9367 3d3d b417 5c3b
00000020: d5f9 93bd 7326 6cbc df68 803d 276d ac3c
00000030: a09d d13d 7f39 633e 6e36 263c 1965 57bd
00000040: 4306 44bd 3ca7 09bb 6a99 47bd 7300 24bd
00000050: 25c2 fabb f431 c6bd 527e a73d d985 863d
00000060: d23d 3d3d 603c 803c 30b4 8dbb 41b0 49bd
00000070: 4c5c c0bc cb12 343d c86a cebc 9c49 f3bd
00000080: 642c 06bc 63d8 2cbd cb94 28bc 823a febc
00000090: 8096 d33d 86fa 893d 0818 dbbd 48bf fb3c
000000a0: 311c 6cbe b11c 9b3c a921 dabb 4fd5 81bd
000000b0: bb90 de3b 875d 5e3c dad5 323d cc8f dabc
000000c0: 3049 233d e5f9 d53d b314 3b3d ec16 693b
000000d0: 0503 ba3d fb31 e1bb 6db5 4cbd 9461 78bd
000000e0: 707d 4b3d 4406 25bd 878e 1b3e 6ecb e03c
000000f0: da7b 043d ab37 2cbd 1a36 e03d 8d6e 43bc
00000100: 95f2 603c 2e91 ae3d 9cf6 473d 8142 0abc
00000110: 6d01 5d3a f117 82bd e1eb 0ebc 6de6 9abb
00000120: d913 24bc 8bd2 5b3d 11a3 193d 0b25 103b
00000130: cedd c43d 21ca 5e3b a03d 14bd be3f c1bb
00000140: b6cb 7c3a 7195 a33c 24d8 843d f536 d63c
00000150: 15bf 6abc 816d 0b3f 97ea ca3c 71c4 703d
00000160: 4645 213b 5a27 693d decc d53c 76fd 41bd
00000170: c1e2 05be da39 96bd c842 35bd d323 5dbd
00000180: 513c 683d ecf9 f5bc cc94 2fbc 8745 79bc
00000190: b4eb 07bd f764 a7bc 3c9f dcbc 6cec 083f
000001a0: d4cc 213c 6227 fe3c e017 e2bd 019d d73d
000001b0: 1e64 01bb 4301 a63c 059a 4b3b 370e 173d
000001c0: 47e9 3f3d 193b b9ba 1826 a1bc f886 fd3b
000001d0: acbb 05bc 90c7 a03d e8e8 9a3d d314 063c
000001e0: 6372 6b3d bf31 6fbe c03f 873b 4f0c c83a
000001f0: d62e 6a3d 976f 6fbd b47f 49bc 7a65 a23c
00000200: bd89 14bc 7b0e f43c eebb f5bd 1592 4cbb
00000210: 1235 d5bb 4e89 4cbc 8801 0dbd 8c5e bd3d
00000220: e3be 9f3d 1bf2 af3d 945b dcbd 9d67 65bd
00000230: 70a1 c63d 11b3 51bc e3d7 e83d af1b f93c
00000240: ef66 edba b3eb 003c 24d9 c8bc eaaf f93c
00000250: 0d2a d23d ff77 bd3d 9834 313d f28d b63d
00000260: bc94 29bc 0a5d ad3d ad2d cabb 0f51 17bd
00000270: 5c6f efbb 596e 13be 1f48 7cbd cfb8 d03c
00000280: e6ef 153d 6c84 383d a199 773c 1d12 933c
00000290: 739c 2d3d 60c4 d93b 2e5b e6be e1f1 2dbc
000002a0: 1db0 e4bc 1151 a63d 3314 0dbc 9708 66bd
000002b0: 5d79 553b f53e 013d 8cdc eebc e253 6bbe
000002c0: 333d fd3c d8e6 313d f59b 08bb a70e f03c
000002d0: 00f9 97bb c3b9 c13d 5afc 26bc 75de 093d
000002e0: bb49 ecbd 5cba 033d 3dd9 a9bd 343d 8e3c
000002f0: fa53 713d 1997 2e3d 44a4 cebd 1d8d 52bd
00000300: ce83 ae3c 92ae d93e 68d4 97bd a41e 563c
00000310: d90b ab3c 9df8 91bd f639 923c f119 86bc
00000320: 3fab d53c ddc2 ae3d d2b3 c13e 4556 4b3c
00000330: bf45 413d 02df 0ebc a1d8 1a3c 514a 423d
00000340: b6ed aa3c 905e fd3d cb49 f1bd 2c2a 23bd
00000350: a766 663c a8f0 d8bc ec9b 2abe 1e63 d03c
00000360: 214a 77bd f04c 4f3d 2410 1f3c 2029 663d
00000370: d2a9 90be 263b f43d d5e1 57bd fc3a 013e
00000380: c9ac 89bd b690 843d b99f 3a3d f924 6c3c
00000390: 1abc b2bc 1ad1 84be f5a3 c03d dfb6 41bd
000003a0: d9cb d43c a9e7 4a3d 49c6 503d d513 a4bd
000003b0: d9f5 4a3d 1c1b 0d3b b55c 8fbe 3b72 95bd
000003c0: 497e e83c d0cb 5c3d 1be7 da3d 3bb5 30bc
000003d0: 623c 973b c57c 1f3d 5f06 033e 79d5 4e3c
000003e0: 3c71 1e3d 5d26 bcbd 5604 7cbc 682d 88bc
000003f0: 4d3d 24bd a077 c13c 52be 223d c7e1 afbd
0.013053359 0.01883547 -0.04429528 -0.009059519 0.77151316 0.026626546 0.046241354 0.0033583464
-0.07225386 -0.014413464 0.062700026 0.021048142 0.10235143 0.22189902 0.010144813 -0.05258665
-0.047857534 -0.002100422 -0.04873029 -0.04003949 -0.0076525384 -0.096774966 0.081783906 0.06568498
0.046201535 0.015653789 -0.0043244585 -0.049240354 -0.02348151 0.043963235 -0.025197402 -0.11879274
-0.0081892945 -0.04219855 -0.010289381 -0.031033758 0.1033144 0.06737237 -0.10697943 0.030730858
-0.23057629 0.01893458 -0.0066568446 -0.063395135 0.0067921556 0.013572103 0.043660976 -0.026679896
0.03986472 0.10448054 0.045674037 0.003556664 0.09082607 -0.006872413 -0.04997771 -0.060639933
0.049680173 -0.04028918 0.15191089 0.027440753 0.032344677 -0.042045277 0.10947819 -0.011928213
0.013729711 0.085237846 0.04881917 -0.008438707 0.00084306934 -0.06352223 -0.00872323 -0.004727176
-0.010014498 0.053667586 0.037509028 0.0021994736 0.096126184 0.003399499 -0.036191583 -0.0058974912
0.00096433924 0.01996872 0.06486538 0.026149252 -0.014327784 0.54463965 0.024770064 0.05878109
0.002460794 0.056922294 0.026098665 -0.04736086 -0.13074781 -0.07335253 -0.04425314 -0.053989243
0.056698147 -0.030026399 -0.010716628 -0.0152143305 -0.03318377 -0.020433886 -0.026931398 0.5348575
0.009875495 0.031024639 -0.1103971 0.10527993 -0.0019743512 0.020264274 0.0031067145 0.03687879
0.04685333 -0.0014131992 -0.019671485 0.007737037 -0.00816242 0.078505635 0.075639546 0.008183676
0.057482135 -0.2335882 0.0041274726 0.0015262457 0.057173572 -0.05845603 -0.012298513 0.019823778
-0.0090660425 0.029792061 -0.11998735 -0.0031215001 -0.0065065706 -0.012483908 -0.03442529 0.09246549
0.078000806 0.085911 -0.10759655 -0.056007016 0.096987605 -0.01279904 0.11369302 0.030408708
-0.0018112342 0.007868695 -0.024517603 0.03047939 0.10261927 0.09251403 0.043263048 0.08913793
-0.010350402 0.084650114 -0.0061699958 -0.036942538 -0.0073069762 -0.14397563 -0.061592218 0.025478749
0.036605738 0.045048162 0.015112312 0.017952973 0.04238553 0.006645724 -0.4499144 -0.01061675
-0.027916009 0.08120931 -0.008610773 -0.056160536 0.003257356 0.03155418 -0.0291579 -0.22981218
0.030912971 0.04343304 -0.002084491 0.029303862 -0.0046378374 0.09459259 -0.010192001 0.033659417
-0.115375005 0.032160148 -0.08293388 0.017363168 0.058917977 0.042624567 -0.10089925 -0.051404107
0.021303084 0.42516 -0.0741356 0.013068829 0.020879673 -0.07127497 0.017849904 -0.016369792
0.026082633 0.08533261 0.37832505 0.012410705 0.047185656 -0.008720161 0.009451062 0.047434155
0.020865303 0.12371552 -0.11781653 -0.03983514 0.01406256 -0.026481941 -0.16661042 0.025437888
-0.06037343 0.050610483 0.009708438 0.056191564 -0.28254563 0.11925344 -0.052705605 0.12620157
-0.06722409 0.06472914 0.04556248 0.014413112 -0.02181821 -0.25940782 0.09406272 -0.04729354
0.025976108 0.049537335 0.05097035 -0.08011595 0.049550865 0.002153105 -0.28000417 -0.07297178
0.02838053 0.05390531 0.10688611 -0.010785396 0.0046153525 0.03893735 0.12795399 0.012624138
0.038682207 -0.09187005 -0.015381893 -0.016623214 -0.040097523 0.023616612 0.039732285 -0.085879855

block_1.c2_r.weight f4 [38, 38, 3, 3]
00000000: 9394 363d 708b 06bd 1bff d03a 2c4f cc38
00000010: 72ae b43e a181 fcbd 4f14 2f3d 2813 99bd
00000020: f874 afbd 49de 9a3a 523a b53c 1d55 90bd
00000030: 71da 8c3d 5c4b 853c 51f4 6e3d 571c dcbc
00000040: 480c 18bd 7af0 10be ac75 31bc 691e b93d
00000050: 0c13 123e 0643 1bbd 2f59 ae3d 19e5 0a3f
00000060: 4581 a13b 2c43 923c 15ef bc3d 8a77 5ebd
00000070: 04d0 a0bc 7415 003d a900 a3bd 2243 03be
00000080: 3142 fe3d b680 423d 59a1 ef3c 196a da3c
00000090: 1208 e83c 5763 2c3e caed 0bbe f35b 63bc
000000a0: f2c2 e2bd b52e 05bf 58f8 c83c 3cbf 843d
000000b0: 4999 813d 67d6 72bc 3cdf e4bc 2b0d 92bd
000000c0: 7d8d 8cbc 0b46 4dbb ccfc ef3d 7a49 953d
000000d0: 6178 5bbd 21bf 8dbd e849 7d3d e63a bf3d
000000e0: e7e9 823d 114f 03be a4d3 78be 8033 5dbe
000000f0: 7068 caba b991 103d e21f c43d 24df 023e
00000100: 9d7e 0ebe 4e4d 14bd 2f44 9ebb 303c e13c
00000110: d138 d1bd 3320 c5bc 1945 a73c 496a 473d
00000120: 9ca1 493e 922e 133e 4139 8c3d b8cc 9e3e
00000130: 2a4e eb3e dfbc d33c ee99 0e3e 8836 fe3c
00000140: f4d0 633c e030 84bb 8a15 e7bc 0448 80bc
00000150: ca8a 98bd 8db9 91bd 411a b13e b9aa 63bd
00000160: a1b0 a23d ac5c fa3e e104 263d 150d 25bd
00000170: 9ee1 c73c a040 2dbc 5262 7dbd 7b76 a53c
00000180: a31c 2f3d 72d3 29bc d7b6 903d 2de5 d73b
00000190: d1ed 4ebc 7db7 2f3e 5e3c 5dbe a7d1 ed3e
000001a0: 2e27 31be 14cb 133c 49ce bbbd 427a 243e
000001b0: f33b 293c 2a7b 27bd 5595 5dbd b4e2 d3bd
000001c0: 3526 043e 916e 11be 0956 0fbc f5b8 7cbc
000001d0: cecf 43ba aa5f c03c 6b8e 28be c782 d6b9
000001e0: 8200 67bb d511 a63c 0a6a 793f 24d2 a9bc
000001f0: 1108 08be 7b5a bfbd 171d 97bc 226d c63d
00000200: 5c65 003d 81a6 b4bd 367d 673b 86bc 16bd
00000210: 236a 813c 1d7d 8abd 0e2c dbbc 83d8 9cbc
00000220: eb00 6b3d ff83 d53c 8eb3 22bd 26a4 dc3d
00000230: 45ab 9f3c eb6a beb9 3bde 863d 845e e23d
00000240: bef5 043c 1bd5 993c d3f6 933d 05bc 51bc
00000250: 5264 fb3c 9a8d dd3c 393b 99bb dc6b b1bb
00000260: cdea 483d 0e14 5b3b 3c17 a2bd 61f4 453d
00000270: 32fa afbc 56e8 d53d 6914 d53d 9767 7d3c
00000280: cccd f7bc 9db9 153e beee 8abd 246a e4bd
00000290: a40d 01be e5a4 f73d 2afd 763e 7d04 cf3e
000002a0: 7d73 f3bb 333b c0bd 9559 18be 9909 6dbd
000002b0: f4d7 593c 8183 cabc 5961 fbbc 3ee1 b43d
000002c0: a259 0e3d 9c4b cb3b 2b7e d03c 1089 ab3b
000002d0: 3e28 d23c ea2f b03c 29c9 3abe c6bd a53d
000002e0: c664 84be 3ddd 32bf e848 c33c 132a 96bd
000002f0: dcbb d2bd f4e9 8dbd a715 703e e598 4fbd
00000300: ff59 f23c ce82 a3bd 8314 aa3d f1d0 cd3c
00000310: e55b 963c b929 9c3c f0dd e73c 5b97 323c
00000320: ec44 ed3c c99d 32bd 2eb6 03be 0ace 133e
00000330: 9d63 cd3d 68a4 e3bb 0c06 783c 9773 253d
00000340: 8c58 22bd 0d77 313c b9d8 b9bd 3abc 0dbe
00000350: cba6 063d 6c4b 5d3c 4aab 27bd 12cc 41bd
00000360: eef8 aa3d 4a98 623d 9a9e 12bd 16a6 5dba
00000370: ed6b 27be 9be4 00be 9e97 083d 90de 733d
00000380: de96 06bd 3a2f 0a3c 284e 4abd 997b 333d
00000390: addb 2cbd 936f e43c 32ae 073f e25c c3bc
000003a0: 20a0 75bc ef92 72bd 3290 99bc 2737 d43d
000003b0: 8ae0 aebb 7845 203d 57d5 cfbd 89eb b2bd
000003c0: b44e 0d3d bfdd 833d 387e 8c3d a07f d93c
000003d0: 9651 7dbd 9093 423c 4575 8a3d 6946 68be
000003e0: 538e 18bd 57f3 8e3d bf1f 2cbd fd71 c83d
000003f0: db92 8cbc 6493 d83c c39d 683c f8a0 303d
0.044575285 -0.03284782 0.0015945168 9.742225e-05 0.3528934 -0.12329412 0.042743977 -0.07474357
-0.08567232 0.0011815514 0.022122536 -0.07047484 0.06877602 0.016271286 0.058338467 -0.026868982
-0.037121087 -0.14154235 -0.010831278 0.090390034 0.14265078 -0.037905715 0.08513104 0.54255825
0.00492874 0.017854296 0.09225289 -0.05431322 -0.01963044 0.03127046 -0.0795911 -0.12818578
0.12414969 0.04748603 0.029251741 0.02666192 0.02832416 0.1683477 -0.13664928 -0.013876903
-0.11072339 -0.52024394 0.024532482 0.064817876 0.06328065 -0.014821625 -0.027938478 -0.07131418
-0.01715731 -0.0031322266 0.11718139 0.07289405 -0.0535816 -0.069212206 0.06183806 0.09337406
0.063922696 -0.1282313 -0.24299484 -0.21601677 -0.0015442502 0.035295222 0.09576394 0.12780434
-0.13915487 -0.036206536 -0.0048299055 0.02749452 -0.10215915 -0.024063205 0.02041869 0.048685346
0.19690555 0.14373234 0.06846858 0.31015563 0.45958072 0.025846897 0.13925907 0.031031862
0.013904799 -0.0040341467 -0.028208513 -0.01565934 -0.07448347 -0.07115469 0.34590343 -0.055582736
0.079438455 0.48898828 0.040531997 -0.04029568 0.024399575 -0.01057449 -0.061861344 0.020198097
0.04275192 -0.010365354 0.07066124 0.006588599 -0.012629942 0.17159839 -0.2160506 0.46449015
-0.17300102 0.009020586 -0.09170205 0.16062263 0.010329234 -0.040888943 -0.054097492 -0.103459746
0.129052 -0.14202334 -0.00874854 -0.015424957 -0.0007469625 0.023483116 -0.16460578 -0.00040914697
-0.0035248105 0.020272175 0.9742743 -0.020730086 -0.13284327 -0.0934343 -0.018446488 0.09688784
0.031346664 -0.088208206 0.0035322434 -0.036800884 0.01579768 -0.06762145 -0.026754405 -0.01914621
0.057373922 0.026063917 -0.039722018 0.10773496 0.019490847 -0.00036319284 0.06585356 0.11053184
0.00811523 0.018778374 0.07224812 -0.012801175 0.030687485 0.02704506 -0.0046762493 -0.005414469
0.04905205 0.0033428702 -0.07914588 0.04832876 -0.021481607 0.10444705 0.104042836 0.015466592
-0.030249499 0.14621587 -0.06783818 -0.11153057 -0.1260286 0.12091998 0.24120012 0.40433112
-0.0074295388 -0.09386291 -0.14877923 -0.05787048 0.013296116 -0.02472091 -0.030686067 0.08832024
0.03475345 0.0062040817 0.025450787 0.005234845 0.025653955 0.021507222 -0.18240799 0.08092837
-0.25858134 -0.6986883 0.023838475 -0.07332244 -0.102897376 -0.06929389 0.2344576 -0.05068292
0.02958393 -0.079839334 0.083046935 0.025124045 0.018354366 0.019062864 0.02830407 0.010900344
0.028963529 -0.043607507 -0.12862465 0.14434066 0.10028765 -0.006947089 0.01513816 0.04039344
-0.039635226 0.010831607 -0.0907454 -0.13841334 0.03287391 0.0135067515 -0.04093484 -0.047313757
0.08348261 0.055321015 -0.035795785 -0.00084552297 -0.16349764 -0.12587206 0.03334772 0.059538424
-0.032858722 0.008434111 -0.04939094 0.043819044 -0.042201687 0.027885234 0.53000176 -0.023848
-0.01499179 -0.059222158 -0.018745515 0.10362082 -0.0053368257 0.03912875 -0.10148113 -0.08736331
0.034498885 0.06438779 0.06860012 0.026550114 -0.061845385 0.011876002 0.06760649 -0.2268311
-0.037245106 0.06980007 -0.042022463 0.097873665 -0.01715987 0.026437469 0.01419777 0.04312226

block_1.c3_r.weight f4 [44, 38, 3, 3]
00000000: 0c62 f9bd 4cc2 1cbe 4403 f2be b8b1 0d3f
00000010: a125 be3f 970d 6ebe 9f31 3bbd e5f3 a5be
00000020: 85e6 f2be 8a7e 81be 8d4a 41bd a3d4 52bc
00000030: f691 8bbe ed70 183f baf8 933b 5650 2ebe
00000040: 9b0c 54be 26ef 48be 62b6 05be 314b e8bc
00000050: be6f f03d c6cb 023d 8bab e2bc a22f bdbd
00000060: 205d c53c bc98 04bd 2ad5 4c3d 3008 c33d
00000070: d37a 553e fed2 1e3d c9e9 92be 4c84 293e
00000080: 7866 5abd 2036 563e 5a9a 6a3e 9d38 a4bd
00000090: 6bde bbbc d6f6 b6bd f618 993c 2cd3 53be
000000a0: c94a ba3e e801 ac3d 114f 1b3d 2295 b33e
000000b0: e902 953e 9098 adbe 5924 fcbe 81d8 99bd
000000c0: 65a8 d4be 9e24 9f3e b21f 82be 2683 ca3d
000000d0: 11f3 46be e9e7 d63e 0012 09be 4918 46bc
000000e0: 1ce9 07be e616 0e3d cc70 773e 3c46 a9bd
000000f0: bd4b e23d 318d 843d c624 3bbe d5f4 13bd
00000100: 2df0 ebbe 1372 a9bd 61f6 00be 7903 963f
00000110: 40fc babe 6bfb adbe 5812 883e 085a ccbe
00000120: 90db b23e f19f 6a3e 17b3 093d 878e 643e
00000130: c59f 6abe 28e9 d33e a5f1 c93e 7922 d73e
00000140: 97ea 1f3e 1bf7 f0bc 5f42 2bbe d162 a13e
00000150: 2228 493e 6692 89bd 347a e8be 83a3 59be
00000160: dcf1 ddbe 705c 143d e31a 23be d9ed f23e
00000170: c4de b1bd a93a 943e 87e8 73bf 9426 ed3d
00000180: e4e1 f83d da37 153e 3648 2f3e e4ba 873c
00000190: 6120 f3bb ecf6 183d 4ec8 943d 3702 8dbe
000001a0: 2d4f af3d f136 93bd c879 a1be 6fd9 023d
000001b0: 2868 26be c4aa 84bd 1463 4ebe ebcc da3e
000001c0: ab00 8b3d 3cd1 1bbf ddf8 6ebd b954 3b3e
000001d0: ce2f cbbd 97aa 3ebe 115e 2fbe 48ba 96be
000001e0: f1c5 60be 8697 85bf a79d 42be 9f39 a5bd
000001f0: 1886 ae3e 013f 33bd dca0 c1bc a298 ca3d
00000200: 4a22 4bbe 7ebb 00be bda4 9ebd 2821 a23d
00000210: 1f89 d6bb 9a01 983d 74f5 1bbe 7016 863d
00000220: 1dbc 143d 1167 fabe 6af5 8bbc 28ad 033e
00000230: 8571 473e 9f4a d83d f023 0dbd 9f62 0e3e
00000240: 0864 7c3d f61a 613f adb3 1d3d ede0 423e
00000250: 8235 323f 97e4 a53e 27c5 9e3e 5a96 433e
00000260: 4ffc b23e 5c5d dd3c 0f06 d63d d5df 29bc
00000270: 7102 823e ca8d 003d 5935 423e a8e6 c0bd
00000280: 6ced c2bd fb8c 73be f9e2 513d a240 a1bd
00000290: 3f81 9bbd ce25 64be 2efb 9c3e c067 f6bd
000002a0: 5391 8fbe 2966 ed3d 1fb9 9bbd 882c 5abe
000002b0: c8d4 b13d c1aa d5bd eb1b a23e 7295 f6bd
000002c0: 5b88 6fbd 1740 00bd 8118 803e 359e 58be
000002d0: ab92 06bf 16dd 0ebf 08fe 6dbe 544f cabd
000002e0: 9696 fa3e 5716 cc3d f72a e0be 31a6 1abf
000002f0: 14d2 26be 00d3 1dbe ab22 95bc a19d b73d
00000300: 2cd2 a43d 3fc4 dd3d b9c4 a739 96a9 863e
00000310: 53c6 613e 85a7 0a3e 54fa c6bd cc75 353e
00000320: 61ce fa3d 6ba6 0f3c 1186 0b3e 1df0 26be
00000330: f80e eabd f07a 8ebf 5ea3 ffbe 73ea 0dbd
00000340: bf60 d13c 29c3 30be 811a fabc a244 aa3e
00000350: 1d54 383d 17fd 3dbe 40a3 debe d2ce 153b
00000360: 0e19 97bd 9ecc 833d c7b8 e4bd ee7a 573e
00000370: 5857 8ebe d0f4 0ebd 84b9 d1bc a034 99bd
00000380: c798 65bd 0b83 8c3d 792d 30be ac7d 723d
00000390: ba68 8bbe 4ecb 263d 0b6a cf3c 5ca2 113e
000003a0: 65b1 4dbc 10e5 b53d a8ad 0f3e 53e7 4abe
000003b0: 2d79 263d 0340 87be 80f0 2c3f 594c 9dbe
000003c0: 8578 103d 0757 bbbe 8d26 2cbd 12d1 4ebd
000003d0: 86ee 843d b321 53bb 7c5f a5bd e881 7a3e
000003e0: 99e5 213e c78c 7dbd 7f66 2a3e 9057 20bd
000003f0: 2fc8 f93d c207 253e afc9 a93d af45 e63e
-0.12176904 -0.15308493 -0.47268116 0.553493 1.4855233 -0.23247372 -0.04570162 -0.3241264
-0.47441497 -0.25291854 -0.047190238 -0.012868079 -0.27259797 0.5954731 0.0045157345 -0.17022833
-0.20707934 -0.19622478 -0.13057855 -0.028356167 0.11740063 0.031932615 -0.027669689 -0.09237601
0.024092257 -0.03237222 0.050007977 0.09523046 0.20847635 0.038775437 -0.2869399 0.16554374
-0.053320378 0.20919085 0.22910443 -0.080186106 -0.022933206 -0.08933799 0.01868866 -0.20686024
0.36385182 0.08398801 0.0379172 0.35074717 0.29103783 -0.33905458 -0.4924648 -0.07511998
-0.41534725 0.31082624 -0.25414807 0.09888296 -0.1942866 0.41973808 -0.13385773 -0.012090751
-0.13272518 0.034689806 0.24164122 -0.08265349 0.11049602 0.064722426 -0.18275747 -0.036122162
-0.46081677 -0.08273711 -0.12593986 1.171981 -0.36520576 -0.3398088 0.26576495 -0.39912438
0.34933138 0.22912575 0.03361806 0.22319995 -0.2291251 0.41388822 0.39442173 0.42018488
0.15616833 -0.029414704 -0.16724537 0.31520703 0.19644216 -0.067173764 -0.45405734 -0.21253781
-0.43348587 0.036220968 -0.15928225 0.47447088 -0.08685067 0.28951004 -0.95276684 0.11579624
0.1215246 0.14572087 0.1711739 0.016568609 -0.0074196314 0.037344858 0.072647676 -0.27540752
0.085600235 -0.071882136 -0.31538224 0.031945642 -0.1625067 -0.064778835 -0.20154983 0.42734465
0.06787237 -0.6086614 -0.058342803 0.18294038 -0.099212274 -0.18619762 -0.17125727 -0.29438996
-0.21950509 -1.0436866 -0.19005452 -0.08067631 0.3408668 -0.043761257 -0.023636274 0.09892394
-0.19837299 -0.12571523 -0.07746265 0.0791648 -0.006547108 0.074221805 -0.15230352 0.06547248
0.03631221 -0.48906758 -0.017084796 0.12859023 0.19476898 0.10561108 -0.0344581 0.13904808
0.061618835 0.87931764 0.03850143 0.19031115 0.69612896 0.32400963 0.3100979 0.19100323
0.3495812 0.027022056 0.10450374 -0.010368307 0.25392488 0.03138522 0.18965663 -0.09418994
-0.09517941 -0.23784249 0.05124185 -0.07873656 -0.07593011 -0.22280046 0.30660385 -0.120315075
-0.2804056 0.11591751 -0.076036684 -0.2130605 0.08683163 -0.10432959 0.31661925 -0.12040223
-0.058479648 -0.03131112 0.25018695 -0.21154101 -0.5256755 -0.558061 -0.23241436 -0.09878412
0.48943013 0.099651985 -0.4378278 -0.6040984 -0.16291076 -0.15412521 -0.018205008 0.08965612
0.080478996 0.108284466 0.00031999292 0.2630126 0.22048311 0.13540466 -0.09715715 0.17720717
0.12246395 0.0087677045 0.13625361 -0.16302533 -0.11428636 -1.1131268 -0.49929327 -0.034647416
0.025558827 -0.17261948 -0.030530216 0.33255488 0.04500209 -0.18553577 -0.43483925 0.002285887
-0.07377826 0.06435512 -0.11168056 0.21042988 -0.27801013 -0.03490144 -0.025601156 -0.074807405
-0.056053903 0.06860932 -0.17204846 0.05920188 -0.27228338 0.04072123 0.02531912 0.14222091
-0.012554501 0.08881581 0.14031088 -0.19814806 0.040642906 -0.26416025 0.67554474 -0.3072231
0.035271186 -0.36589834 -0.042028952 -0.050492354 0.06490807 -0.0032216131 -0.08074853 0.24463618
0.15810241 -0.061901834 0.16640662 -0.039146006 0.12196385 0.1611624 0.08290421 0.4497504

block_1.c5.weight f4 [44, 44, 1, 1]
00000000: cea1 9ebd cd6c 9f3d 97c6 2f3c 2360 793e
00000010: 5cbe ed3d 3a3e 47bd bb86 f63d e2d9 133b
00000020: 1ada 05be 5555 32be ce56 d1bd f72d 0f3d
00000030: 20c8 18be 394a c3bd 0d82 a7bc 2c55 463d
00000040: 9f30 65bc 9fb7 86be f447 f1bb 12e4 653d
00000050: c7fc 8bbc b1e7 7d3d ef36 5a3e d81f 153e
00000060: 7ba1 693e e614 a3be bc06 b6be 567a 87bd
00000070: a96c d83e c84e 363d b97f 2bbd 2b34 95bd
00000080: 3425 a6bd 7e8a 01bd ed62 463e b71a 0dbe
00000090: 176c 32be 1d57 ad3c fb71 1a3d 29ed ecbd
000000a0: 3cd2 91bd 2bd9 ca3e 2ab6 0f3b af5e 333d
000000b0: e1e3 e83d 046b 253d 43fb 18bd 2a82 b4bd
000000c0: 847d a43d 0fd6 513d b24b cabd c94a f43d
000000d0: 1275 5f3e b949 eebb 7d83 9d3d ce12 c63e
000000e0: 25b6 943e 818a 71bd d93e 93bd bce4 d53c
000000f0: b746 00be ec74 a63e 1c75 f43b 473f d23b
00000100: 31b4 383e 6bcd cfbd fbb4 123e aded c2bd
00000110: 1dcf bdbd 948f 3b3d 1684 38be ce2c aa3e
00000120: d249 52be b21a 39be 3b0a d03c e821 ae3e
00000130: 38c6 02bc 5ba5 f03c e9ee 943e afba 4bbd
00000140: 5448 963e 00df 89be 74fa babc 4053 723d
00000150: d752 4abe 89f2 22bf 1236 28be 594a 2c3d
00000160: d2e6 123d fc8d 70bd 8c55 d9bc f58c a03e
00000170: 860b 383d d47e c73d 1a54 513d d5c5 0d3d
00000180: c752 48bd 0246 3c3e 714b 7b3d df1f 2ab7
00000190: 44a2 933d 8020 69be 5bfe c7bd 19cb 7d3c
000001a0: d7d6 5f3d c9f0 d93e 6d5f dabd 67c6 9c3d
000001b0: 6eac 983c 7345 a83c 29a1 963c ac06 2cbd
000001c0: 181b da3c 9ac9 75bd 5dc4 2a3d f2bc 3c3c
000001d0: e4af 98be 89cf 19bd 5a0b 2fbe 6530 93bc
000001e0: a414 aebd 54bc 0cbb 6c14 b63d 8e5d 04bd
000001f0: f07d cbbd d6c3 d13d 92b7 073d e0d1 433d
00000200: ac04 afbe f955 40bd 913d 1ebd 1c04 ec3b
00000210: 78b9 fa3d 4894 20bd 8f7a 793d ef7e 67bd
00000220: 91bd 0fbe 8f74 a23d 045f 803d 34e0 f6bc
00000230: 2c06 ad3d d50b 253d d328 6dbd 6ed6 a6bd
00000240: e4b2 47bd a2fc 03be cf9a d43d 6908 01be
00000250: 467c bd3d 7556 343e 34b1 b5bd e61e d43d
00000260: 76a0 8e3d 01b8 b0bd 7b19 1ebe 0be2 b23b
00000270: 74ae fc3d 7bb5 26bd 2c99 24be 625b 033d
00000280: 6d0e 903e 005f ad3e 6d54 263e d6a8 573d
00000290: af6c 78bd dcb7 efbd a513 973c 5cda d7bc
000002a0: 202f 91bd df9f 903d f296 863c 30fb c2bd
000002b0: 7044 72be 6991 2d3d d322 0d3e c44a 20bc
000002c0: c3ad 57bd 0a55 e73d 3364 073c b992 61be
000002d0: b981 67be 24b6 53bd c329 333e d29b 68bc
000002e0: 18cb d43d b76e 96bd cad4 893e ccd7 cc3d
000002f0: e422 edbc a489 1a3c 9300 45bd 03cf 973d
00000300: efe7 20bd 1290 97bd e0d8 81be c6ea 86be
00000310: 543c e0bd 1bbc 0bbd 6a02 33bd 1354 68bc
00000320: 6c50 1ebd eba9 babb 248e ca3d 7146 de3d
00000330: 4f56 0f3f 0579 2f3c 3345 f33d 87b6 65bd
00000340: 90f5 26be e9d5 2e3e 1700 afbc b75c 663b
00000350: dd3a 073d e004 bbbc 7d69 5b3e 3560 f5be
00000360: ac36 5fbe ad12 31be f388 f13c 9649 4ebd
00000370: 2a48 a2bd 5e65 2cbc c8b6 94bd 710b 05be
00000380: 7cfb f7bc 8eba 8bbd 76b8 133d 3774 07be
00000390: 3b5a 41be a7b7 a7bd b02d b6bd e783 8ebb
000003a0: 4410 cd3c 90f3 18bc 557f a83e 1bb8 a1bd
000003b0: e322 503b 7c8e 94be bf48 f73d cb15 a8bc
000003c0: a71c 4abd cf2a d0bd c24d 94bd 3ad8 a6bd
000003d0: ace7 a23d 8a92 863d 2e06 3bbd 9797 a03e
000003e0: 2978 2fbe b08e 7e3e 6b7d c53d 04f4 d73d
000003f0: a370 1ebd b53b a93d b042 8b3d a209 3abd
-0.077457055 0.07784424 0.0107285 0.2435308 0.11608574 -0.04864333 0.120374165 0.0022560288
-0.1307148 -0.17415364 -0.10221635 0.034955945 -0.14920092 -0.09535641 -0.020447755 0.04842107
-0.013988643 -0.26311967 -0.007363314 0.056125708 -0.017088307 0.061988536 0.21310018 0.14562929
0.22815506 -0.31851882 -0.35552013 -0.066151306 0.422704 0.044508725 -0.041869853 -0.07285341
-0.08112565 -0.031626217 0.19373675 -0.13779722 -0.17424046 0.021159703 0.037706356 -0.11568672
-0.07120177 0.3961881 0.0021928647 0.04379147 0.113715895 0.04038526 -0.037348997 -0.08813889
0.08031753 0.051229533 -0.09877719 0.11928327 0.21822003 -0.007271972 0.07691095 0.38686222
0.29045215 -0.05896998 -0.071897216 0.026110046 -0.12526976 0.3251108 0.0074602496 0.0064162347
0.18037488 -0.10146602 0.14326851 -0.09517989 -0.09268019 0.045791224 -0.18019137 0.33237308
-0.20535973 -0.1807659 0.025395503 0.34010243 -0.007981829 0.029375723 0.29088524 -0.049738582
0.29352057 -0.26927948 -0.022824503 0.059161425 -0.19758163 -0.6365133 -0.16426876 0.04206309
0.03586466 -0.058729157 -0.02653005 0.31357542 0.044932865 0.097409874 0.051105596 0.034612495
-0.048907068 0.18386081 0.061351243 -1.014021e-05 0.07208684 -0.22766304 -0.09765311 0.015490317
0.054648247 0.42566517 -0.10662732 0.0765503 0.018636908 0.020540928 0.018387394 -0.04199855
0.026624247 -0.060006715 0.041691173 0.011519657 -0.29821694 -0.037551437 -0.17094174 -0.017967412
-0.08500031 -0.0021474557 0.08890614 -0.032315783 -0.0993613 0.10242431 0.03313405 0.047807574
-0.34183252 -0.04695699 -0.038632933 0.0072026383 0.122424066 -0.039203912 0.060907897 -0.056517538
-0.14037158 0.07932388 0.06268123 -0.030136205 0.08448443 0.040294487 -0.05790026 -0.08146368
-0.048754588 -0.1288934 0.1038109 -0.12600864 0.09252219 0.17611106 -0.088716894 0.10357456
0.06964199 -0.08628846 -0.15439408 0.0054590753 0.12337962 -0.040700417 -0.16074055 0.03206957
0.28136006 0.33861542 0.16243143 0.05265125 -0.060650524 -0.1170499 0.018441984 -0.026349239
-0.070890665 0.07061743 0.016429398 -0.095205665 -0.2365892 0.042375002 0.13782816 -0.0097834505
-0.052655946 0.11295517 0.008263635 -0.22028627 -0.22608079 -0.051687375 0.174964 -0.014197307
0.103902996 -0.07345336 0.26920158 0.100020975 -0.028947301 0.00943223 -0.04809625 0.07412531
-0.03928369 -0.07400526 -0.25360775 -0.26350993 -0.10949007 -0.03411494 -0.043703474 -0.014180201
-0.038650915 -0.0056965253 0.098903924 0.108532794 0.5599107 0.010710006 0.11878433 -0.056082275
-0.16304612 0.17073788 -0.021362348 0.0035150477 0.03301512 -0.022829473 0.2142696 -0.47924963
-0.217982 -0.1729228 0.029484248 -0.050363146 -0.079239205 -0.010522215 -0.07261425 -0.12992646
-0.030271284 -0.06822692 0.036064588 -0.13227926 -0.18882076 -0.08189326 -0.08895433 -0.00434922
0.02503217 -0.009335414 0.32909647 -0.078964435 0.0031759075 -0.29014957 0.12074422 -0.020518204
-0.04934373 -0.10164415 -0.072413936 -0.08146711 0.07954344 0.06570919 -0.04566019 0.31365654
-0.17135681 0.24859118 0.09643062 0.10544589 -0.038681637 0.08263341 0.06799829 -0.045419343

block_1.esa.conv1.weight f4 [16, 44, 1, 1]
00000000: 23f3 00be cc68 833d 6ba1 44be e77c ef3d
00000010: d911 d8bc 9742 023e 878b 023d 528f e7bb
00000020: 883c 13be 37b1 8cbd ec83 7bbd 6cff eb3d
00000030: d4fb 12be 4c3e 9a3d c932 04be fbc6 0fbe
00000040: 4ac6 463d 8c13 24bd 9b59 fbbd 6e7d ec3d
00000050: 0e21 bdbe c655 1f3e 07a5 ac3e df46 833d
00000060: 9baa 033d 493f 0ebe 2d61 fbbd 84d7 26be
00000070: b015 0bbe ee68 5bbe 82de 243e 67ef 49bc
00000080: a1be 11be faa2 973d e46c 733e 033f 443d
00000090: 7c15 583e f10b 0fbe 2668 92bc 7aae 493d
000000a0: 3db1 083e aae8 903d e7d5 173e c016 51bc
000000b0: ec23 d7bd e99c 9e3d ff7d bebd 4da2 43be
000000c0: 45de e5bc 4c40 e2bc b135 323e 571c 013e
000000d0: c59a 65be 4e8e fabd 7b00 033e bd20 193d
000000e0: 9498 0d3e 4c48 193d 0d53 30be 5237 83bd
000000f0: 72da 6cbe 7983 053e 2b2a 89be 742b 163d
00000100: 06c9 0dbe 6566 38bd 819e d23d 9ee4 3d3d
00000110: 3481 d3bd 57ab 243d dfcd 523e 6d3a d3bd
00000120: 04f6 fd3d 4a9e 9bbc f4b1 1f3c 0d7d dbbd
00000130: 2e8e 0c3d ebb9 24be 15ae 89bd ce6c 273b
00000140: 1874 21bd ae33 993e 7673 0b3e af90 f0bd
00000150: 9c3e a23c 9764 393d 6b11 46bc 63eb 713e
00000160: 78f4 bfbd e06a c43d 2050 bd3d fde8 1fbe
00000170: 309d 19be 515d 8a3e 1dc3 90bd fa3b 87bd
00000180: 9f30 873c f5c0 dd3b 9773 ca3c 2e31 573c
00000190: a2c8 e2bc 8522 0bbe aee4 d03d 617c dd3d
000001a0: 3a45 913e b28e a2bc 2c9d f5bd 6789 e43d
000001b0: ed42 0d3d b593 043c b578 cdbd 49d8 47bc
000001c0: 10ce 98bd 66b0 13bc 5769 103e bc45 e3bd
000001d0: e3d4 a13c bfec 793e 5c1e 8dbd 0b86 debd
000001e0: 018b 5dbe 003b f3bd d052 613c 0c9c d9bb
000001f0: 37a2 dd3c 9f27 59be 7f44 e6bd ccbf 9b3d
00000200: 8127 0cbe 19ff 1c3d 86a1 a9bd a7a9 24be
00000210: 9c36 8fbd 80f1 0a3e a0a2 7a3e 0705 113e
00000220: bd61 afbc 1604 ebbd 9753 fabc ae0d dcbd
00000230: ed96 da3c 20c1 ad3d db49 79bd ce73 ac3c
00000240: e236 69be 4dbb fdbd 060b 183d 90c1 02be
00000250: 4f65 223e 2f86 023e 4cf0 8dbd 9796 0ebe
00000260: 92b7 a0bd a6b7 143e bd1b 513d b9f8 1f3e
00000270: c956 373d 1c6f 113c 577e 743d 4aae 973e
00000280: 060c 163d 637b debd 172a a7ba 352b 42bd
00000290: 4c7c 84bd d522 67be 80ff 313d 1190 563d
000002a0: 0377 03be 8366 443d e423 3f3e c0ed cf3d
000002b0: e8dc 4b3c b1b7 d7bd d4bf 93bb e00b b2bd
000002c0: bd1d fa3c 2e30 fe3a 7671 2abe 330e 843d
000002d0: 2106 833c 718c bebc 01df 7e3b bd20 2bbe
000002e0: 7ad1 713d 9f1d e53d 234f f4bd 3c9c f53d
000002f0: 6da1 23be aba5 92bd 4e09 713d db47 223e
00000300: 0007 d63d 0706 2bbe 99ac 143e 890e e83c
00000310: 1975 2c3c ccdc 513d ac59 22be 2cf1 5c3d
00000320: 2a33 a6bd 46fe 1fbe 6182 a83e aecc 4d3d
00000330: 9649 8f3d 4d0d a83d 522b 643e 82d5 8b3e
00000340: 97cf 58be 0644 063e e845 613d c3ea 6e3d
00000350: 8c2a 8d3e 9def 0bbc 2a41 933c 20ec c7bc
00000360: ea23 043e 087f eabd 7b28 ef3d 567a dc3d
00000370: 6de9 0cbd c20a 1a3d 7a1c 8d3e 04f0 dfbd
00000380: 7607 643d b804 483d 005e 413d 9411 36be
00000390: 9d3e f93d 401c 983d b56e c33c 787a 6a3d
000003a0: c2ae 7c3d e9a8 05bc b856 d23e dc5f 4d3d
000003b0: b732 febd 3acb 0a3d 1ac1 973c a680 873d
000003c0: 4f7f 903e 4b97 233e 5396 6dbd a247 883d
000003d0: beeb 18be 5d46 363d 27b7 63be d3e0 0a3c
000003e0: d30a 4f3d 8374 77be c408 583e f813 c1bd
000003f0: b94c 01be c66d 3a3d 87f1 e43c ccca 30be
-0.1259275 0.06416473 -0.19202201 0.11693745 -0.026375698 0.12720715 0.031871345 -0.0070666457
-0.1437856 -0.068697385 -0.061405107 0.11523327 -0.14353877 0.075314134 -0.12909998 -0.14040749
0.048528947 -0.040057704 -0.1227295 0.11547361 -0.3693928 0.15560064 0.33719656 0.06410002
0.032145124 -0.13891329 -0.12274394 -0.1629315 -0.13582492 -0.21426746 0.16100505 -0.012325144
-0.14232875 0.07404132 0.23772007 0.047911655 0.21101946 -0.13969399 -0.017871927 0.04923866
0.13348861 0.07075627 0.14827691 -0.012761772 -0.105048984 0.07744772 -0.093013756 -0.19104882
-0.028060088 -0.02761855 0.17403294 0.12608467 -0.22422321 -0.12234174 0.12793152 0.037384737
0.13827735 0.037422463 -0.17219181 -0.06407036 -0.23130205 0.13038434 -0.26789984 0.036662534
-0.13846216 -0.045019526 0.102841385 0.046360604 -0.10327378 0.040202465 0.20586346 -0.10313878
0.124004394 -0.018996377 0.009747017 -0.10717211 0.03431528 -0.16086547 -0.06722657 0.002554703
-0.039417356 0.2992224 0.13618264 -0.11746346 0.019805245 0.045261946 -0.012089114 0.23624949
-0.093728006 0.09590697 0.09243798 -0.15616222 -0.15001369 0.2702432 -0.07068465 -0.066032365
0.016502677 0.006767387 0.02471332 0.013134284 -0.02768356 -0.13587387 0.10199867 0.10814739
0.28373128 -0.019843433 -0.11992869 0.1115902 0.034487654 0.008091857 -0.10032789 -0.0121975625
-0.07461178 -0.009014225 0.14102684 -0.11097285 0.019754833 0.24406718 -0.06890556 -0.108654104
-0.21635057 -0.11876488 0.013752654 -0.0066409167 0.02705489 -0.2120652 -0.11243533 0.07604942
-0.13686945 0.038329218 -0.08282761 -0.16080342 -0.06992838 0.13568687 0.24476099 0.14162074
-0.02140891 -0.11475389 -0.030557437 -0.10744797 0.026683295 0.08484101 -0.06086145 0.021051314
-0.22774842 -0.123892404 0.037119888 -0.1276915 0.15858959 0.127465 -0.069305986 -0.13924633
-0.07847513 0.14523181 0.051051844 0.15622224 0.0447605 0.008876588 0.0596908 0.2962516
0.03663256 -0.10863378 -0.0012753633 -0.047404487 -0.0646902 -0.22571881 0.043456554 0.052383486
-0.12838368 0.047949325 0.18666035 0.10152769 0.012442805 -0.10533083 -0.0045089517 -0.08693671
0.030531758 0.0019393021 -0.16644844 0.06448021 0.015994133 -0.023260327 0.0038890245 -0.16711707
0.059037663 0.111872904 -0.11929157 0.1199269 -0.15979548 -0.07160505 0.058846764 0.15847723
0.10450554 -0.16701518 0.14518966 0.028327243 0.010525965 0.05123596 -0.1585452 0.053940937
-0.081152275 -0.15624341 0.3291197 0.050244026 0.06996457 0.08205662 0.2228215 0.2731133
-0.21172939 0.13111886 0.05499831 0.058329355 0.27571523 -0.008541015 0.017975409 -0.024404585
0.12904325 -0.114500105 0.11677643 0.10765521 -0.0344023 0.037607916 0.27560788 -0.10934451
0.055671178 0.048832625 0.047208786 -0.17780143 0.12170146 0.07427263 0.0238565 0.0572457
0.0616901 -0.008157947 0.41081786 0.050140247 -0.12412017 0.03388522 0.018524695 0.066163346
0.2822213 0.15975682 -0.05800469 0.06654288 -0.14933679 0.044500697 -0.22237836 0.008476454
0.050547432 -0.2416554 0.21097094 -0.09427637 -0.12626924 0.045514844 0.0279472 -0.17264861

block_1.esa.conv1.bias f4 [16]
00000000: 579b 01be bfcf 0d3f 4ca4 66bf 7e1b 25be
00000010: 63bd 4b3e 40bf b73e e8f0 e93d 0e09 88be
00000020: a219 afbe 80e8 b5be 58e1 803e 7a1f 573f
00000030: 6d20 083e ee63 253e ded4 e7bd 5494 fcbc
-0.12656914 0.5539512 -0.9009445 -0.16123769 0.19896464 0.358881 0.11422902 -0.26569408
-0.34199244 -0.35528946 0.25171924 0.84032404 0.1329362 0.16151401 -0.11319898 -0.030832447

block_1.esa.conv_f.weight f4 [16, 16, 1, 1]
00000000: 94f7 0bbd b510 113e 8a24 ce3e 2c75 0fbe
00000010: 4900 eebd d708 3e3e b9b4 4f3f d658 babd
00000020: e1bd 72be 8d86 86be d0c4 0b3f 1969 483e
00000030: 708d 1ebe 21b4 b03e f34e 96be e1e5 943d
00000040: 7347 8bbe a744 c8be f6df af3e 2a56 743e
00000050: 2674 24be c304 b53d 04ad 13bd 9673 b83d
00000060: 3bb1 cc3e f77f ae3e 0804 0c3f 8847 73be
00000070: 1ae7 31bd 2247 483e cf74 333e 6773 4cbe
00000080: 1685 96bd 2829 92be 0abe 8a3e 9b30 a93e
00000090: 2827 2b3e 5965 9c3e af22 d73d 7fc3 d63d
000000a0: 2593 c9bd dcfc 383e 438f 96be 11aa 87be
000000b0: 8726 51be ef26 813e e3ec ed3e 43a9 10bf
000000c0: 1405 8ebc 089f 8cbe 06ae ea3e 1f62 af3c
000000d0: 2a72 933d aa09 aabd b2ce 003f 538e 393e
000000e0: 32d8 6ebd 1fc0 ba3d 368a a53a 26cd e23e
000000f0: ec52 9dbe c802 d9be 483a 5b3e ac1b ee3d
00000100: dbd3 043e 3247 1a3e 6607 3abd 3542 f1bc
00000110: 0b63 b8be fb00 b63e c06c 573c be8a b5be
00000120: cbd3 443e 8c13 e7be cee6 063f 4b54 483d
00000130: de17 01bf ef80 843d 5f9b 88be dd5f f7bd
00000140: 5665 5fbe 5c01 d9be 2797 1d3d 9a65 0abf
00000150: d3ea d73e 7023 9cbe ddbc c83e ab93 0cbd
00000160: dc6c 0bbe 68db a7be 7782 d53e 220f 4bbd
00000170: 0932 eb3d 96f6 df3d 38dc f43c d6d1 c5bd
00000180: 4a6a b2be 0b4f 993b fc82 143e 036e ccbd
00000190: 4ef0 c5be 3d14 af3d 572c 72bc 27cf 05bf
000001a0: 7fee 913e a839 4cbd d7ea ab3e 149d 4c3d
000001b0: 7529 263e 032b f43e 62cd cd3e 7321 833c
000001c0: 763c 2d3e f5a6 183f 02a3 07be 4e9c a83d
000001d0: 63b9 5d3e 81f1 2e3d e9e8 b7be 431d 063e
000001e0: 70d0 98be 501c 07bf 8b7e f8ba 7bcb c73d
000001f0: 6b3d 86bd 3b01 1ebe 896a 06be 2d7c ba3e
00000200: 2c2d b4bc a9cf 5bbe cb45 2b3f 260d 313f
00000210: a1a2 82bd d47c 35be baeb 65be e1f6 473e
00000220: 45f4 973e 3622 3f3e 4f9d 13bf 404d 69bf
00000230: e4e5 99be 5cab 41be e91e d13d b7cc abbc
00000240: c248 dbbe 9858 c5be ff6f e2bc fabd 4a3e
00000250: 8245 e938 0991 2f3e a05c cebe b1f7 d43e
00000260: 8365 aa3d b54e 09be 80da 843e fef7 d53e
00000270: e231 f03e 3d04 d4bc 7d59 643c 9c61 b13e
00000280: 0b99 1a3e 4e16 82bd e6dc 9c3e 8f2c ba3e
00000290: 02a6 2ebf c287 c33e 4b97 403d 509d 7dbe
000002a0: 49fd 81be c14f 653e d491 98be 055c e43d
000002b0: d700 debe 3ccd 04bf a0eb 2fbe bc32 5cbe
000002c0: 9763 263e f221 ebbe b3a6 e83e 33a0 5e3e
000002d0: 5135 ee3d 70cf 38be 3da9 55be 6ec4 e73d
000002e0: 2725 ae3d 8a8e 5a3e 498c 56be 6196 e7be
000002f0: d49b 633e bf70 17be 4fa1 923e 43d1 c03d
00000300: ed5d 5abe 6476 693e e25f 82bc e5aa 16bf
00000310: 743d 9c3e 6228 eb3b 98dd 273f 85da af3a
00000320: 0534 b03e e7bc 273e d24d 873e 1402 70be
00000330: c739 173e 614e 453e b5f5 04bf 8741 39be
00000340: 758b 59be 4ded bebd 6454 0f3f c528 86be
00000350: 4cc1 363e 1b1f 00bf 127c 4a3e b478 babe
00000360: 4746 053f a80a 15be d4e2 59be 0202 9dbe
00000370: 193d c4be dbd6 30be 2200 c83e a207 d1bd
00000380: 4907 22bd 1344 ea3e 39f1 5dbf 8f64 883d
00000390: 3946 ab3e 35cc 523f bb3f af3c bcfc a5be
000003a0: 031e da3d 06a0 86be cd3a 21bd 6280 553f
000003b0: 90fa cebc f8ea 913e 7949 6fbe 24ac f9bc
000003c0: bd28 ec3d 604b d3be 5bff 903e 09d2 eb3e
000003d0: 71a8 e23c 9585 1abe 00fc 2ebe 993c 973e
000003e0: 5a69 8d3d 4020 f23d cfec 30be b9a7 633e
000003f0: aa9a 07bf da07 0cbe def1 713e b9f7 1c3e
-0.034171656 0.1416653 0.40262252 -0.14009541 -0.11621148 0.1855806 0.81135136 -0.09098975
-0.23705246 -0.2627453 0.5459719 0.19571342 -0.15483642 0.34512427 -0.29357108 0.072704084
-0.2720295 -0.39114878 0.34350556 0.23860994 -0.16059932 0.08838799 -0.036053672 0.09006421
0.39978966 0.34082004 0.5469365 -0.23757756 -0.043433286 0.19558385 0.17525028 -0.19965898
-0.07349603 -0.28547025 0.27098113 0.33044896 0.16714156 0.30546072 0.10504662 0.10486507
-0.09842519 0.18065208 -0.29406175 -0.26496938 -0.20424853 0.25225016 0.46469793 -0.5650827
-0.017336406 -0.2746508 0.45835894 0.021409092 0.071995094 -0.083026245 0.5031539 0.18120699
-0.05831165 0.091186754 0.0012629691 0.4429714 -0.30727327 -0.42384934 0.21408951 0.11626372
0.12971441 0.15066221 -0.045417212 -0.029450515 -0.36013064 0.35547623 0.013148487 -0.35457414
0.19221418 -0.451321 0.5269593 0.048908513 -0.50427043 0.06469905 -0.2668104 -0.12078831
-0.21816 -0.4238385 0.03847423 -0.5406128 0.42171344 -0.30495787 0.3920659 -0.034320515
-0.13615745 -0.3278458 0.417011 -0.04957498 0.11484153 0.109357044 0.029890165 -0.09659164
-0.34846717 0.004678612 0.14503092 -0.099819206 -0.386599 0.08548782 -0.014781079 -0.52269214
0.2850227 -0.049859673 0.33577606 0.04995449 0.16226752 0.47689065 0.40195757 0.01600716
0.16917595 0.59629756 -0.13245776 0.08232938 0.2165275 0.042710785 -0.35919884 0.130971
-0.29846525 -0.52777576 -0.0018958611 0.09755608 -0.06554683 -0.15430157 -0.13126577 0.36422864
-0.021994196 -0.21465935 0.6690337 0.6916069 -0.06378675 -0.177234 -0.22453204 0.1952777
0.2967855 0.18665394 -0.5766191 -0.911335 -0.30058205 -0.18913025 0.10210974 -0.02097164
-0.42828947 -0.38544154 -0.027641295 0.19799033 0.000111232526 0.1714517 -0.40305042 0.41595224
0.08320143 -0.1340893 0.25947952 0.41790766 0.46913058 -0.025880927 0.013937351 0.34644783
0.15097444 -0.063519105 0.30637282 0.3636212 -0.6822206 0.38189512 0.047019284 -0.24767041
-0.25388554 0.22393705 -0.29798758 0.11150364 -0.43360016 -0.5187566 -0.17179728 -0.21503729
0.16248928 -0.45924336 0.4543968 0.21740799 0.11631263 -0.18047881 -0.2086534 0.11316763
0.0850318 0.21343437 -0.20951952 -0.45231918 0.22227412 -0.14789103 0.28638694 0.094149135
-0.21324892 0.22799069 -0.015914861 -0.58854514 0.30515635 0.007176445 0.655725 0.0013416564
0.34414688 0.16380654 0.2642656 -0.23438293 0.14768134 0.1926818 -0.5193742 -0.18091403
-0.21244605 -0.09322605 0.55988145 -0.2620298 0.17847174 -0.50047463 0.19773892 -0.36420214
0.5206036 -0.14554846 -0.21277934 -0.30665594 -0.38327864 -0.17269461 0.390626 -0.10206534
-0.03955773 0.45755062 -0.866962 0.06659805 0.33452013 0.82342845 0.021392694 -0.32419384
0.106502555 -0.26293963 -0.039362717 0.8339902 -0.025265962 0.2849958 -0.23367871 -0.03047759
0.11531208 -0.41268444 0.2831982 0.46058682 0.02766821 -0.1509002 -0.17088318 0.2953842
0.0690486 0.118225574 -0.17277835 0.2223195 -0.52970374 -0.1367487 0.23627421 0.15328874

block_1.esa.conv_f.bias f4 [16]
00000000: e9c9 a1bd dc40 f0be c384 693c 7441 ffbe
00000010: d000 02bf 5630 a4be e451 a9be 14f3 ba3e
00000020: 4bf3 0d3d 42a6 913e 6e57 ab3e 628d 53be
00000030: 38a8 0cbf 9788 9dbb 89cd 3b3f 47e7 8a3e
-0.078998394 -0.46924484 0.014252844 -0.49854624 -0.5078249 -0.32068127 -0.3307029 0.3651358
0.03465585 0.28447157 0.3346514 -0.20659402 -0.5494418 -0.0048075425 0.73360497 0.27129576
